…
    "model.add( keras.layers.Dense(100, activation='relu'))\n",
    "model.add( keras.layers.Dropout(0.5))\n",
    "\n",
    "model.add( keras.layers.Dense(10, activation='softmax'))"
   ]
  },
  {
   "cell_type": "code",
   "execution_count": 7,
   "metadata": {},
   "outputs": [
    {
     "name": "stdout",
     "output_type": "stream",
     "text": [
      "Model: \"sequential\"\n",
      "_________________________________________________________________\n",
      "Layer (type)                 Output Shape              Param #   \n",
      "=================================================================\n",
      "conv2d (Conv2D)              (None, 26, 26, 8)         80        \n",
      "_________________________________________________________________\n",
      "max_pooling2d (MaxPooling2D) (None, 13, 13, 8)         0         \n",
      "_________________________________________________________________\n",
      "dropout (Dropout)            (None, 13, 13, 8)         0         \n",
      "_________________________________________________________________\n",
      "conv2d_1 (Conv2D)            (None, 11, 11, 16)        1168      \n",
      "_________________________________________________________________\n",
      "max_pooling2d_1 (MaxPooling2 (None, 5, 5, 16)          0         \n",
      "_________________________________________________________________\n",
      "dropout_1 (Dropout)          (None, 5, 5, 16)          0         \n",
      "_________________________________________________________________\n",
      "flatten (Flatten)            (None, 400)               0         \n",
      "_________________________________________________________________\n",
      "dense (Dense)                (None, 100)               40100     \n",
      "_________________________________________________________________\n",
      "dropout_2 (Dropout)          (None, 100)               0         \n",
      "_________________________________________________________________\n",
      "dense_1 (Dense)              (None, 10)                1010      \n",
      "=================================================================\n",
      "Total params: 42,358\n",
      "Trainable params: 42,358\n",
      "Non-trainable params: 0\n",
      "_________________________________________________________________\n"
     ]
    }
   ],
   "source": [
    "model.summary()\n",
    "\n",
    "model.compile(optimizer='adam',\n",
    "              loss='sparse_categorical_crossentropy',\n",
…
